models/snn_50epochs.pth (torch, 397992 bytes, 5 tensors)

model_a.encoder.0.0.weight f4 [24, 4088]
-0.0046603563 0.010356865 0.007198906 0.02804147 -0.035265923 1.1602246e-05 -0.057958618 -0.00052702235
-0.017290462 -0.005535914 0.047302645 -0.022246182 0.027156128 -0.051074043 0.0078789545 0.030617088
-0.0022343458 0.014114622 0.0018046924 0.021951092 -0.0060125585 -0.0021295906 -0.0035239458 -0.004147499
-0.02282124 0.029890548 -0.028229004 0.01996456 -0.037633926 0.009344062 -0.0076270425 -0.036847185
0.033040598 0.020921096 -0.01163656 -0.019424373 0.020086033 0.0030500183 -0.013238574 0.0060576783
-0.01983573 -0.021867685 -0.03288169 0.01397358 0.0036507864 0.029075671 -0.00032923973 0.0047951885
-0.011592667 -0.013830537 0.0062413984 0.009062076 0.006127375 -0.0063630873 -0.01865011 0.01639019
0.025020748 0.005351121 0.016350957 0.003896182 0.013207183 -0.0018853295 -0.010306373 -0.029102838
-0.0025955297 0.029431041 0.015205002 -0.0005515475 -0.025134107 0.022538798 -0.06633673 0.0066293147
0.0057878774 -0.04657406 -0.01564017 -0.01966855 -0.012994273 -0.009418367 0.047893774 -0.032216635
-0.018132256 -0.003531423 0.000759433 -0.00013323271 -0.02764931 0.025137506 0.00614943 0.02392531
0.012509623 0.003495212 0.023510575 -0.0031187711 -0.010386503 0.032293666 -0.012884705 -0.03356987
-0.023087518 0.0045269965 0.039248083 -0.0018657559 -0.012046322 0.06665747 -0.007889968 0.016357873
0.005460966 -0.0002841763 0.0075839628 0.015447459 -0.004228547 0.0096108075 0.0070573715 0.011776234
-0.0037916268 -0.050620824 -0.026296588 0.007684261 0.06344616 -0.053232633 0.02970441 0.0064974916
0.011512944 -0.006657473 -0.015179139 -0.002303539 -0.005943579 -0.00830737 -0.001198962 0.043090276
0.0511047 0.04693875 0.020011593 -0.013527484 0.050089497 -0.011566898 -0.00016743851 -0.0025104182
-0.020092767 0.022636993 -0.010178461 0.01050608 -0.010690791 0.003288254 0.035017785 -0.0028579154
-0.027610827 0.008098138 0.0020540091 0.00282541 -0.014970434 0.0017541905 0.03807979 0.0030338392
-0.014495627 -0.00076614 0.018035585 0.0123182 0.019829309 -0.026013365 0.00821386 0.029225774
-0.01746728 -0.006937074 -0.008228632 -0.022234647 0.015591099 -0.015579911 -0.021755155 -0.010224995
-0.011134019 -0.009511343 -0.0011594052 -0.03017815 0.0047366926 0.038966358 0.016799336 0.023312656
-0.0052700955 0.005473511 0.034019116 -0.064457886 -0.0071042324 0.00091711694 0.03359385 0.011066862
0.00546649 -0.007055817 0.0052098827 0.012592574 0.02604982 -0.020760054 0.0033923408 0.004040327
-0.04105219 -0.042516112 0.0071918773 0.004343893 0.005565624 0.02180785 -0.006364112 -0.027498772
-0.04411503 0.0071912566 -0.024228143 -0.019159587 -0.023057774 0.010492444 -0.00505853 -0.017768955
-0.02683357 0.03241471 0.017541379 0.028328089 -0.029900014 -0.017822161 0.021907486 -0.007459349
-0.013669981 0.0035776186 0.01334332 0.014079355 -0.0043581524 0.046921514 -0.0012506397 0.04059964
0.028453592 0.010075665 0.0027558287 0.0028158955 -0.0024482023 -0.016368082 -0.009249871 -0.018570004
0.02567586 0.0013807265 0.029794946 -0.0044013313 0.01495155 -0.02223488 0.011209899 -0.024363372
0.015948027 -0.008567072 -0.011696403 -0.0157782 -0.010835054 0.0027097545 -0.035687014 0.015556701
0.009742933 0.003469106 -0.012158864 -0.018479846 -0.02811237 -0.0050266585 0.031223208 -0.010667938
00000000: e7b5 98bb d7af 293c cde4 eb3b 3ab7 e53c
00000010: 0073 10bd 44a7 4237 0466 6dbd df27 0aba
00000020: baa4 8dbc 9d66 b5bb 6bc0 413d a03d b6bc
00000030: 8776 de3c 0433 51bd bb16 013c b0d0 fa3c
00000040: 1a6e 12bb 0441 673c 6e8b ec3a c7d2 b33c
00000050: ff04 c5bb 9a90 0bbb 00f2 66bb bee7 87bb
00000060: 9cf3 babc 06dd f43c 8340 e7bc b88c a33c
00000070: 0826 1abd d617 193c 45ec f9bb 13ed 16bd
00000080: 9455 073d b862 ab3c 45a7 3ebc dd1f 9fbc
00000090: 778b a43c d1e2 473b 9be6 58bc 7d7f c63b
000000a0: 8a7e a2bc dc23 b3bc f3ae 06bd 71f1 643c
000000b0: 0842 6f3b 1a30 ee3c cf9d acb9 f520 9d3b
000000c0: 2bef 3dbc 7a99 62bc a584 cc3b 1a79 143c
000000d0: 26c8 c83b 7281 d0bb 1ec8 98bc b844 863c
000000e0: 50f8 cc3c 7558 af3b 71f2 853c 1657 7f3b
000000f0: f162 583c 291d f7ba 10dc 28bc 1369 eebc
00000100: c319 2abb 5e19 f13c 671e 793c ba95 10ba
00000110: 0be6 cdbc 49a3 b83c 8ddb 87bd b93a d93b
00000120: 3ca8 bd3b 71c4 3ebd d01f 80bc f01f a1bc
00000130: eee5 54bc 7f4f 1abc 432c 443d 97f5 03bd
00000140: 198a 94bc 726f 67bb b014 473a 62b4 0bb9
00000150: ce80 e2bc 2ced cd3c 2881 c93b 03ff c33c
00000160: 29f5 4c3c ed0f 653b 4099 c03c 4c64 4cbb
00000170: 272c 2abc 5d46 043d 5f1a 53bc 8f80 09bd
00000180: 0922 bdbc 3357 943b 99c2 203d 618c f4ba
00000190: f05d 45bc b683 883d ed44 01bc f200 863c
000001a0: e7f1 b23b 7ffd 94b9 e482 f83b 5717 7d3c
000001b0: a08f 8abb a676 1d3c 8641 e73b 1bf1 403c
000001c0: f17c 78bb c857 4fbd f16b d7bc 41cc fb3b
000001d0: 0ff0 813d 760a 5abd aa56 f33c e9e8 d43b
000001e0: c9a0 3c3c ee26 dabb ecb1 78bc f9f6 16bb
000001f0: 5bc2 c2bb a31b 08bc 7d26 9dba 6e7f 303d
00000200: 2953 513d d942 403d 5aef a33c 61a2 5dbc
00000210: a52a 4d3d 1683 3dbc 6f92 2fb9 d485 24bb
00000220: 9699 a4bc 3771 b93c 8fc3 26bc b221 2c3c
00000230: 6d28 2fbc bf7f 573b cf6e 0f3d dd4b 3bbb
00000240: 1a30 e2bc 0dae 043c 8e9c 063b 842a 393b
00000250: 8d46 75bc deec e53a 8ef9 1b3d 60d3 463b
00000260: 117f 6dbc c9d6 48ba 5dbf 933c 47d2 493c
00000270: 1371 a23c fb19 d5bc 6d93 063c e46a ef3c
00000280: 8b17 8fbc 6550 e3bb 62d1 06bc 6f25 b6bc
00000290: cf71 7f3c e242 7fbc de37 b2bc bd86 27bc
000002a0: 766b 36bc 77d5 1bbc 2ff7 97ba 2b38 f7bc
000002b0: 4236 9b3b 309b 1f3d c39e 893c 2ffa be3c
000002c0: c4b0 acbb 235b b33b a157 0b3d 7f02 84bd
000002d0: 9fca e8bb ad6a 703a b499 093d c951 353c
000002e0: 3e20 b33b 7c34 e7bb aab7 aa3b 1551 4e3c
000002f0: 6f66 d53c fd10 aabc 0952 5e3b b864 843b
00000300: 5726 28bd 6025 2ebd d7a9 eb3b 3757 8e3b
00000310: d75f b63b 60a6 b23c 0a8a d0bb 1b45 e1bc
00000320: f6b1 34bd a2a4 eb3b 197a c6bc 91f4 9cbc
00000330: a8e3 bcbc 80e8 2b3c 06c2 a5bb 3390 91bc
00000340: 13d2 dbbc 49c5 043d f0b2 8f3c 4f10 e83c
00000350: e0f0 f4bc c8ff 91bc 5477 b33c 8e6d f4bb
00000360: 0ef8 5fbc 7b76 6a3b f19d 5a3c 18ad 663c
00000370: d5ce 8ebb c630 403d 81ec a3ba cf4b 263d
00000380: 8217 e93c 6714 253c 229b 343b e38a 383b
00000390: 0572 20bb 5b16 86bc c58c 17bc 1f20 98bc
000003a0: 2e56 d23c 7ef9 b43a 8814 f43c 0b39 90bb
000003b0: 59f7 743c ec25 b6bc b9a9 373c b295 c7bc
000003c0: 70a5 823c e85c 0cbc 45a2 3fbc 4941 81bc
000003d0: 8385 31bc 2396 313b 8c2c 12bd 89e1 7e3c
000003e0: d3a0 1f3c f159 633b f935 47bc 0c63 97bc
000003f0: ea4b e6bc abb6 a4bb d0c7 ff3c 93c8 2ebc

model_a.encoder.0.0.bias f4 [24]
-0.12958981 0.024427557 -0.063916564 -0.17218235 -0.13694727 -0.050406396 0.050928675 -0.08082136
-0.03204868 -0.06739611 -0.03888776 -0.074934565 0.008803582 -0.09620693 -0.017138882 -0.14417331
0.021098368 -0.039561767 -0.10645272 0.078202985 -0.058632582 -0.16266331 -0.15924837 0.053281046
00000000: 31b3 04be 4d1c c83c b0e6 82bd 9250 30be
00000010: e83b 0cbe f076 4ebd 969a 503d ab85 a5bd
00000020: 7a45 03bd f906 8abd c648 1fbd 4b77 99bd
00000030: e63c 103c 2408 c5bd d766 8cbc 2ba2 13be
00000040: 7cd6 ac3c 850b 22bd e203 dabd e328 a03d
00000050: b828 70bd 3691 26be 0112 23be 3a3d 5a3d

model_a.encoder.1.0.weight f4 [16, 24]
0.15431976 -0.15993509 -0.027490532 0.20633908 -0.082290694 -0.04700721 -0.059478935 0.062090967
-0.059473664 -0.08245897 -0.013383636 -0.04320971 0.04874533 -0.021832226 -0.008988506 0.035988327
-0.17268896 0.11502356 0.048447095 -0.38345805 -0.25889793 0.15235302 -0.041183252 -0.0749601
0.11268704 -0.20313965 0.0550515 -0.013316969 -0.18598463 0.07819732 -0.3312148 -0.12628338
0.18514182 -0.01739864 -0.31714702 0.015862558 -0.14530724 0.25391963 -0.018005151 -0.009877169
0.019436536 -0.2284889 0.010268501 -0.113725215 0.23486283 0.07245667 0.03838011 -0.23012243
-0.056914896 0.06438774 -0.016400358 0.08864721 0.041379273 -0.16929604 0.063666694 0.06777391
0.11001121 -0.1522164 -0.08501589 -0.124198526 -0.056138415 0.04030319 -0.095131084 -0.01017817
-0.16580014 0.11251474 -0.29974598 -0.16119996 0.26603544 -0.061119117 0.6562871 -0.21376768
0.091534846 -0.077736266 -0.16279465 0.07794623 0.23044197 -0.19824687 0.09779876 -0.09684502
0.03568781 -0.24002697 -0.04195774 0.28190547 -0.13367769 0.24057575 -0.19364335 -0.121304706
0.017077232 -0.48985443 -0.37195298 0.2594127 0.086985506 -0.17275313 -0.11930511 -0.27495492
0.05554188 -0.045610268 -0.049311914 -0.089165054 0.072001815 0.3491635 -0.060275313 0.05763497
-0.0681166 0.12688886 -0.07415651 -0.078683354 -0.2627054 -0.25076392 0.16839138 0.22826508
0.22658472 -0.15760577 -0.08687002 -0.14708531 -0.088024676 0.07581812 -0.11247988 -0.17422064
0.10242305 0.05395748 -0.14086948 -0.14507636 0.23107915 -0.088849135 -0.20831509 0.048961934
-0.14176328 -0.075673185 0.20459808 0.23322336 -0.13409278 0.3518572 -0.05722509 0.19376442
-0.2218307 0.23782004 -0.17559989 -0.18249506 -0.043550137 0.0516399 0.32328278 0.24717267
0.1286687 0.042822093 -0.22059155 0.11116733 0.3613474 0.22142652 -0.14330651 0.1091797
-0.1405973 0.1971283 0.16039325 0.012937606 -0.19438867 0.18907467 -0.17746982 -0.019877603
-0.3192367 0.00051159825 0.028970972 0.0976675 -0.07913456 0.01692846 0.21915223 -0.5614427
-0.12161999 0.11480718 0.06547911 0.115059696 -0.08039643 -0.3114448 0.39386123 0.07057906
0.17504275 0.09422637 0.052189954 0.038124245 -0.09708674 0.08766455 -0.17500198 0.13114281
-0.07606867 0.34837618 -0.016096545 -0.07178577 -0.16595288 -0.17110148 -0.030458527 0.028787503
-0.07642968 -0.33963895 -0.0122737335 -0.15490358 0.12176947 0.1754012 0.09208044 0.096736126
-0.35281122 -0.27860174 0.18780571 -0.24594592 -0.021415247 -0.27832025 0.14206618 0.30479515
0.19159488 -0.28506878 -0.15225239 -0.20064315 0.039306473 -0.21582775 -0.043271225 -0.11876817
-0.15270713 -0.14633241 0.09748557 0.22906467 0.1347356 -0.21758072 -0.23832764 -0.042289656
-0.19744192 0.09539771 -0.22371542 0.080137566 -0.121423766 0.03238233 0.034869805 -0.13593344
-0.13299689 -0.12563136 0.44336358 -0.1367118 -0.116766036 0.17333795 0.32871848 -0.28656232
-0.082633205 -0.023022652 -0.111488655 -0.37712473 0.34472585 -0.0496135 0.15042895 0.33239698
0.08287856 0.17538424 0.07362827 0.334886 0.0392576 0.3148925 -0.069268376 -0.12597127
00000000: 0006 1e3e 06c6 23be d333 e1bc 8d4a 533e
00000010: 0688 a8bd a28a 40bd 2fa0 73bd 1953 7e3d
00000020: a89a 73bd 40e0 a8bd 0a47 5bbc aafc 30bd
00000030: 2fa9 473d 7fd9 b2bc 8744 13bc 7f68 133d
00000040: 60d5 30be 7991 eb3d 7670 463d 9d54 c4be
00000050: 458e 84be 6e02 1c3e c5af 28bd ae84 99bd
00000060: 76c8 e63d d703 50be af7d 613d 6b2f 5abc
00000070: c172 3ebe eb25 a03d fc94 a9be 6e50 01be
00000080: d195 3d3e 9887 8ebc 1861 a2be 32f2 813c
00000090: 6ccb 14be c101 823e 8a7f 93bc d9d3 21bc
000000a0: 5f39 9f3c fff8 69be 373d 283c c4e8 e8bd
000000b0: e27f 703e 2a64 943d 7634 1d3d 37a5 6bbe
000000c0: 981f 69bd b8dd 833d 0b5a 86bc ab8c b53d
000000d0: 507d 293d f15b 2dbe af63 823d 0ccd 8a3d
000000e0: 8f4d e13d 9ede 1bbe d01c aebd cc5b febd
000000f0: 65f1 65bd f514 253d 16d4 c2bd 57c2 26bc
00000100: 83c7 29be 216e e63d 4e78 99be 9a11 25be
00000110: cc35 883e 0a58 7abd 6e02 283f eae5 5abe
00000120: 9f76 bb3d 3134 9fbd a4b3 26be 46a2 9f3d
00000130: fbf8 6b3e 3a01 4bbe b74a c83d af56 c6bd
00000140: 622d 123d a1c9 75be e1db 2bbd ea55 903e
00000150: cee2 08be 7d59 763e 714a 46be 9a6e f8bd
00000160: 8de5 8b3c 33ce fabe 9f70 bebe bed1 843e
00000170: 7525 b23d 32e6 30be 3d56 f4bd e4c6 8cbe
00000180: e27f 633d d5d1 3abd 4afb 49bd 2b9c b6bd
00000190: b075 933d 8fc5 b23e 3fe3 76bd a512 6c3d
000001a0: b780 8bbd 27ef 013e 5edf 97bd bd24 a1bd
000001b0: 5281 86be 2164 80be ca6e 2c3e 52be 693e
000001c0: d305 683e 6863 21be e9e8 b1bd 889d 16be
000001d0: 4846 b4bd 8846 9b3d da5b e6bd e566 32be
000001e0: 2dc3 d13d 8502 5d3d 1740 10be e68e 14be
000001f0: 03a0 6c3e 89f6 b5bd 8d50 55be 4f8c 483d
00000200: 652a 11be 8bfa 9abd 2982 513e 1bd2 6e3e
00000210: 9e4f 09be a026 b43e db64 6abd 2e6a 463e
00000220: 9627 63be 1987 733e 75d0 33be fcdf 3abe
00000230: a161 32bd 5c84 533d 5285 a53e d51a 7d3e
00000240: bac1 033e 3866 2f3d c0e2 61be b2ab e33d
00000250: 8702 b93e a2bd 623e f1be 12be 9b99 df3d
00000260: bdf8 0fbe 00dc 493e 213e 243e 41f8 533c
00000270: d30d 47be ca9c 413e a6ba 35be 5bd6 a2bc
00000280: fe72 a3be c71c 063a 8854 ed3c e605 c83d
00000290: 4d11 a2bd 8ead 8a3c 7169 603e b5ba 0fbf
000002a0: e713 f9bd 0720 eb3d e919 863d 6ba4 eb3d
000002b0: e2a6 a4bd b175 9fbe 2ea8 c93e c18b 903d
000002c0: 683e 333e c1f9 c03d 22c5 553d 2b28 1c3d
000002d0: 6ad5 c6bd 7989 b33d b833 33be 4d4a 063e
000002e0: e4c9 9bbd 5d5e b23e e7dc 83bc 6b04 93bd
000002f0: 8def 29be 3a35 2fbe 2984 f9bc c5d3 eb3c
00000300: 2a87 9cbd 28e5 adbe c517 49bc 0b9f 1ebe
00000310: 4662 f93d 5f9c 333e ab94 bc3d 971d c63d
00000320: aca3 b4be e3a4 8ebe 2450 403e 3fd9 7bbe
00000330: 076f afbc fe7f 8ebe cc79 113e 1c0e 9c3e
00000340: 7331 443e 89f4 91be 0de8 1bbe 6675 4dbe
00000350: d3ff 203d f301 5dbe 2b3d 31bd ba3c f3bd
00000360: 425f 1cbe 2ad8 15be 84a6 c73d ee8f 6a3e
00000370: 21f8 093e 7bcd 5ebe 290c 74be eb37 2dbd
00000380: 372e 4abe e05f c33d a815 65be 2a1f a43d
00000390: 06ad f8bd 56a3 043d a4d3 0e3d 2332 0bbe
000003a0: 5630 08be 82a5 00be 8d00 e33e 2efe 0bbe
000003b0: 0823 efbd 817f 313e ca4d a83e 4cb8 92be
000003c0: 993b a9bd 009a bcbc 2a54 e4bd 7e16 c1be
000003d0: e87f b03e 8637 4bbd 0c0a 1a3e f02f aa3e
000003e0: 3cbc a93d ed97 333e 6bca 963d 2e76 ab3e
000003f0: 94cc 203d 9739 a13e 94dc 8dbd 9dfe 00be

model_a.encoder.1.0.bias f4 [16]
-0.25214708 -0.14456275 -0.27207923 -0.03242223 -0.16110277 -0.18391755 -0.08105687 -0.11922055
-0.10390097 -0.22193249 -0.052466996 -0.13154411 -0.06432164 -0.042683054 -0.2086862 -0.09074281
00000000: 6c19 81be 4208 14be f84d 8bbe 2ccd 04bd
00000010: 20f8 24be e254 3cbe 2501 a6bd e729 f4bd
00000020: 08ca d4bd 4542 63be a2e7 56bd 80b3 06be
00000030: 10bb 83bd 6dd4 2ebd d6b1 55be 5ed7 b9bd

model_a.classifier.1.weight f4 [1, 16]
0.012387344 0.015074407 -0.008471535 -0.012521334 0.012668391 -0.0076227416 -0.006315978 -0.018428074
0.02081385 0.0075325808 -0.013300492 -0.013500983 -0.0032720822 0.00067220966 -0.015695903 -0.0055591166
00000000: 49f4 4a3c a5fa 763c 31cc 0abc 4826 4dbc
00000010: 158f 4f3c 31c8 f9bb 43f6 cebb 79f6 96bc
00000020: cf81 aa3c ded3 f63b 4fea 59bc 3a33 5dbc
00000030: 6e70 56bb 3a37 303a b294 80bc 4029 b6bb
